…
class="line">14</span><br><span class="line">15</span><br><span class="line">16</span><br><span class="line">17</span><br><span class="line">18</span><br><span class="line">19</span><br><span class="line">20</span><br><span class="line">21</span><br><span class="line">22</span><br><span class="line">23</span><br><span class="line">24</span><br></pre></td><td class="code"><pre><span class="line"></span><br><span class="line">                 from  n    params  module                                  arguments                     </span><br><span class="line">  0                -1  1       464  models.common.Conv                      [3, 16, 3, 1]                 </span><br><span class="line">  1                -1  1         0  torch.nn.modules.pooling.MaxPool2d      [2, 2, 0]                     </span><br><span class="line">  2                -1  1      4672  models.common.Conv                      [16, 32, 3, 1]                </span><br><span class="line">  3                -1  1         0  torch.nn.modules.pooling.MaxPool2d      [2, 2, 0]                     </span><br><span class="line">  4                -1  1     18560  models.common.Conv                      [32, 64, 3, 1]                </span><br><span class="line">  5                -1  1         0  torch.nn.modules.pooling.MaxPool2d      [2, 2, 0]                     </span><br><span class="line">  6                -1  1     73984  models.common.Conv                      [64, 128, 3, 1]               </span><br><span class="line">  7                -1  1         0  torch.nn.modules.pooling.MaxPool2d      [2, 2, 0]                     </span><br><span class="line">  8                -1  1    295424  models.common.Conv                      [128, 256, 3, 1]              </span><br><span class="line">  9                -1  1         0  torch.nn.modules.pooling.MaxPool2d      [2, 2, 0]                     </span><br><span class="line"> 10                -1  1   1180672  models.common.Conv                      [256, 512, 3, 1]              </span><br><span class="line"> 11                -1  1         0  torch.nn.modules.padding.ZeroPad2d      [[0, 1, 0, 1]]                </span><br><span class="line"> 12                -1  1         0  torch.nn.modules.pooling.MaxPool2d      [2, 1, 0]                     </span><br><span class="line"> 13                -1  1   4720640  models.common.Conv                      [512, 1024, 3, 1]             </span><br><span class="line"> 14                -1  1    262656  models.common.Conv                      [1024, 256, 1, 1]             </span><br><span class="line"> 15                -1  1   1180672  models.common.Conv                      [256, 512, 3, 1]              </span><br><span class="line"> 16                -2  1     33024  models.common.Conv                      [256, 128, 1, 1]              </span><br><span class="line"> 17                -1  1         0  torch.nn.modules.upsampling.Upsample    [None, 2, &#x27;nearest&#x27;]          </span><br><span class="line"> 18           [-1, 8]  1         0  models.common.Concat                    [1]                           </span><br><span class="line"> 19                -1  1    885248  models.common.Conv                      [384, 256, 3, 1]              </span><br><span class="line"> 20          [19, 15]  1    196350  models.yolo.Detect                      [80, [[10, 14, 23, 27, 37, 58], [81, 82, 135, 169, 344, 319]], [256, 512]]</span><br><span class="line">yolov3-tiny summary: 49 layers, 8852366 parameters, 8852366 gradients, 13.3 GFLOPs</span><br></pre></td></tr></table></figure><p><code>.yaml</code>æ–‡ä»¶ä¸­å¯¹äº
…
